…
      "outputs": [
        {
          "output_type": "stream",
          "name": "stdout",
          "text": [
            "Construyendo modelo con entrada: (4, 84, 84), acciones: 6\n",
            "✓ Modelo construido exitosamente\n",
            "Arquitectura del modelo:\n",
            "Model: \"sequential\"\n",
            "_________________________________________________________________\n",
            " Layer (type)                Output Shape              Param #   \n",
            "=================================================================\n",
            " permute (Permute)           (None, 84, 84, 4)         0         \n",
            "                                                                 \n",
            " conv2d (Conv2D)             (None, 20, 20, 32)        8224      \n",
            "                                                                 \n",
            " activation (Activation)     (None, 20, 20, 32)        0         \n",
            "                                                                 \n",
            " conv2d_1 (Conv2D)           (None, 9, 9, 64)          32832     \n",
            "                                                                 \n",
            " activation_1 (Activation)   (None, 9, 9, 64)          0         \n",
            "                                                                 \n",
            " conv2d_2 (Conv2D)           (None, 7, 7, 64)          36928     \n",
            "                                                                 \n",
            " activation_2 (Activation)   (None, 7, 7, 64)          0         \n",
            "                                                                 \n",
            " flatten (Flatten)           (None, 3136)              0         \n",
            "                                                                 \n",
            " dense (Dense)               (None, 512)               1606144   \n",
            "                                                                 \n",
            " activation_3 (Activation)   (None, 512)               0         \n",
            "                                                                 \n",
            " dense_1 (Dense)             (None, 6)                 3078      \n",
            "                                                                 \n",
            " activation_4 (Activation)   (None, 6)                 0         \n",
            "                                                                 \n",
            "=================================================================\n",
            "Total params: 1,687,206\n",
            "Trainable params: 1,687,206\n",
            "Non-trainable params: 0\n",
            "_________________________________________________________________\n",
            "None\n",
…
